models/linreg_16emb_2layer/linreg_16emb_2layer_10CL_1epochs_0.001lr_64batch_model_epoch0.pth (torch, 57599 bytes, 42 tensors)

positional_embeddings f4 [11, 16]
-0.001761277 -0.009851366 0.0025626163 0.0033772225 0.0032868676 -0.004335954 0.0073854993 -0.0080419285
0.0043857116 -0.006345097 -0.0118595455 -0.0033756925 0.0020184356 -0.0040026885 -0.0024253218 -0.0033160362
0.00075499306 -0.0057952544 -0.014203226 0.0063296813 -0.0007396861 -0.004200437 0.004097658 0.00049997907
-0.00044813647 -0.0068832776 -0.0051799417 0.004323374 0.014435863 0.0027799471 0.0072798203 -0.0033815668
-0.0005644929 -0.01323455 0.0024149737 0.0023024369 0.0021381436 -0.0027460123 0.009852251 -0.0038917237
0.0017143267 -0.004476323 -0.0167737 -0.0022396073 0.0012822603 -0.0036135886 -0.0018628427 0.0006256269
0.0009903848 -0.0063303784 -0.010323508 0.01758907 0.0011757225 -0.004278447 0.004487754 0.0010107426
-0.0024629952 -0.0070575173 -0.006092784 0.005076257 0.014364848 0.0031992039 0.004021539 -0.00370888
-0.0013998399 -0.010793296 0.0039520697 0.0039090184 0.0035188878 -0.003626978 0.0009527591 -0.0045985566
0.00299866 -0.005123042 -0.018167898 -0.005033784 -0.000682145 -0.0045461725 -0.0031769937 0.002456033
0.00081709074 -0.006654016 -0.006125525 0.022485618 0.0019871136 -0.0041163703 0.0043340917 0.00053213217
-0.002367907 -0.00714742 -0.005418364 0.004806649 0.014764498 0.0027248508 0.004126129 -0.0033333355
-0.0011847063 -0.0031111343 0.004319403 0.0033893103 0.0042716023 -0.0039377525 -0.0016104204 -0.0045079165
0.003366946 -0.0052361297 -0.01950734 -0.005074956 -0.00085516303 -0.00506582 -0.003013198 0.0032290772
0.0003734519 -0.00648498 -0.0050182487 0.021349648 0.0014340874 -0.003600694 0.0038115147 0.00019455352
-0.0021317948 -0.0064222817 -0.0048458404 0.004475134 0.014343267 0.002148999 0.0033881126 -0.0027838121
-0.00035176246 -0.0023604631 0.003311698 0.0022323327 0.0031355608 -0.0028125045 -0.0010979181 -0.0032921843
0.0020910052 -0.0040789857 -0.019066036 -0.0039420477 -2.2012371e-05 -0.0035295412 -0.0020106174 0.0020058898
0.0 0.0 0.0 0.0 0.0 0.0 0.0 0.0
0.0 0.0 0.0 0.0 0.0 0.0 0.0 0.0
0.0 0.0 0.0 0.0 0.0 0.0 0.0 0.0
0.0 0.0 0.0 0.0 0.0 0.0 0.0 0.0
00000000: a6da e6ba a067 21bc 91f1 273b 6454 5d3b
00000010: 7d68 573b 9e14 8ebb 0f02 f23b 4bc2 03bc
00000020: 04b6 8f3b 88ea cfbb 8a4e 42bc b93a 5dbb
00000030: bb47 043b fc28 83bb 26f2 1ebb db51 59bb
00000040: baea 453a 1ee6 bdbb a6b4 68bc 3769 cf3b
00000050: 7ee7 41ba d2a3 89bb a645 863b 0711 033a
00000060: dcf3 eab9 1e8d e1bb 80bc a9bb 17ab 8d3b
00000070: 6684 6c3c c62f 363b 8f8b ee3b 479d 5dbb
00000080: 7afa 13ba bad5 58bc 8944 1e3b 7be4 163b
00000090: 1920 0c3b 71f6 33bb 566b 213c 4a0c 7fbb
000000a0: 42b3 e03a 1eae 92bb 0069 89bc 60c6 12bb
000000b0: 8411 a83a f5d1 6cbb a12a f4ba 1c01 243a
000000c0: cdcf 813a 106f cfbb ee23 29bc f416 903c
000000d0: b31a 9a3a 3732 8cbb 020e 933b e57a 843a
000000e0: 346a 21bb bf42 e7bb faa5 c7bb bb56 a63b
000000f0: 8a5a 6b3c bca9 513b 1dc7 833b ae10 73bb
00000100: d57a b7ba 5dd6 30bc 5d80 813b 3917 803b
00000110: 249d 663b 98b2 6dbb 95c2 793a 7daf 96bb
00000120: 2b85 443b 31df a7bb d8d4 94bc 71f2 a4bb
00000130: fad1 32ba 0ff8 94bb 1c35 50bb 65f5 203b
00000140: 0832 563a ef09 dabb a1b8 c8bb c233 b83c
00000150: 3c3a 023b 9ee2 86bb ff04 8e3b c97e 0b3a
00000160: e32e 1bbb e834 eabb 888c b1bb 1881 9d3b
00000170: cbe6 713c 6993 323b 7b34 873b 1774 5abb
00000180: 2648 9bba 2ce4 4bbb c789 8d3b 311f 5e3b
00000190: ccf8 8b3b 4308 81bb be14 d3ba 25b7 93bb
000001a0: fba7 5c3b d793 abbb dbcd 9fbc d14b a6bb
000001b0: 052d 60ba 2eff a5bb 1379 45bb ed9e 533b
000001c0: decb c339 f57f d4bb 1f70 a4bb 75e5 ae3c
000001d0: fdf7 bb3a 9ff9 6bbb 9bca 793b 1001 4c39
000001e0: 95b5 0bbb 0172 d2bb dbc9 9ebb 25a4 923b
000001f0: 0600 6b3c 38d6 0c3b 190b 5e3b 9e70 36bb
00000200: c26c b8b9 00b2 1abb 1309 593b 544c 123b
00000210: fb7d 4d3b ff51 38bb 05e8 8fba b0c1 57bb
00000220: 3f09 093b 03a9 85bb 6030 9cbc 4b2c 81bb
00000230: 35a7 b8b7 e04f 67bb 90c4 03bb 3f75 033b
00000240: 0000 0000 0000 0000 0000 0000 0000 0000
00000250: 0000 0000 0000 0000 0000 0000 0000 0000
00000260: 0000 0000 0000 0000 0000 0000 0000 0000
00000270: 0000 0000 0000 0000 0000 0000 0000 0000
00000280: 0000 0000 0000 0000 0000 0000 0000 0000
00000290: 0000 0000 0000 0000 0000 0000 0000 0000
000002a0: 0000 0000 0000 0000 0000 0000 0000 0000
000002b0: 0000 0000 0000 0000 0000 0000 0000 0000

block.ln1.weight f4 [16]
1.0 1.0 1.0 1.0 1.0 1.0 1.0 1.0
1.0 1.0 1.0 1.0 1.0 1.0 1.0 1.0
00000000: 0000 803f 0000 803f 0000 803f 0000 803f
00000010: 0000 803f 0000 803f 0000 803f 0000 803f
00000020: 0000 803f 0000 803f 0000 803f 0000 803f
00000030: 0000 803f 0000 803f 0000 803f 0000 803f

block.ln1.bias f4 [16]
0.0 0.0 0.0 0.0 0.0 0.0 0.0 0.0
0.0 0.0 0.0 0.0 0.0 0.0 0.0 0.0
00000000: 0000 0000 0000 0000 0000 0000 0000 0000
00000010: 0000 0000 0000 0000 0000 0000 0000 0000
00000020: 0000 0000 0000 0000 0000 0000 0000 0000
00000030: 0000 0000 0000 0000 0000 0000 0000 0000

block.attn.c_attn.weight f4 [48, 16]
0.22425747 0.23655722 0.17071733 -0.19516674 -0.124352336 0.12347892 0.2002326 0.23809367
0.1838583 -0.12946981 -0.070497036 -0.16803649 -0.09736571 -0.081252515 -0.17993897 0.04639411
-0.14648405 0.07814473 -0.03030178 -0.024734348 -0.0077120066 0.100637615 0.07486901 0.20189613
0.20949933 -0.1627118 0.15655065 -0.11789912 -0.20027903 -0.045964718 0.2086361 0.05960366
0.11217508 0.07692167 0.059467822 0.2172752 -0.04608643 0.17847994 0.0623841 0.032432318
-0.21278363 -0.15518913 0.14546245 0.13205054 -0.0884971 -0.2376234 0.19659933 0.0850845
-0.12636867 -0.18232563 -0.15617588 0.03187403 0.04458952 -0.14060047 -0.07303816 -0.10380873
-0.24105519 -0.10601178 0.10615829 0.07099998 -0.13967592 -0.046205163 0.15724781 0.012890041
-0.041104585 -0.016944468 0.1728431 0.027655214 -0.21949205 -0.027090997 0.2277067 0.099045515
-0.065302104 0.039809912 0.19270957 -0.18585882 -0.15302089 0.005995065 -0.05970472 0.11876717
0.19804904 -0.061917007 -0.0435389 0.009302199 -0.23350301 0.04248178 0.1305862 0.02734223
-0.059860706 -0.057769924 0.022996247 -0.024392366 0.059523046 0.16603109 0.034713745 -0.04525575
-0.15972215 -0.24832886 0.13845131 0.04590887 -0.17997095 -0.19017103 -0.113601774 -0.0590533
0.12835187 0.07030603 -0.11428976 0.044431686 0.065445215 -0.1531102 -0.035475463 -0.14301127
0.10595745 -0.09840819 0.11633757 0.19905546 0.122442365 -0.09579903 0.18962187 -0.18007487
0.21365264 0.14561611 0.14288422 0.03497672 -0.041410655 -0.1206117 -0.034237385 -0.04642877
0.22619724 0.15680537 0.11794567 0.20313829 0.13725743 0.023648977 -0.03422755 0.20186657
-0.13319978 0.12239519 -0.0676533 -0.030805826 -0.070932925 -0.24117953 0.21096405 0.19253701
0.17869198 -0.17828006 -0.17491382 0.14159626 -0.22292122 0.056302905 0.17057803 0.07905814
-0.00048190355 0.09276724 0.09295744 -0.073498845 -0.21112642 -0.07570627 0.04453203 -0.094151884
-0.03971216 0.12492335 0.013420999 -0.23997784 -0.06019491 -0.22141728 0.1718353 -0.027303964
-0.0056051016 -0.026575148 -0.069535434 -0.0023588836 -0.1245397 -0.21333304 -0.20420304 -0.017527044
0.24627936 -0.16961652 0.2109608 0.1985926 0.1534189 -0.2485024 -0.18620202 -0.15817565
-0.042684227 -0.18435153 0.20954388 0.22243908 -0.18335071 0.08159739 0.08628145 -0.022755474
0.081691444 -0.0826537 -0.1714055 -0.15007463 0.22079244 0.14622274 -0.039928794 -0.18092051
-0.16646841 -0.0483765 0.1559701 -0.09659305 -0.10170126 0.058772564 0.023649603 0.0044025183
-0.24995366 0.05591476 -0.06874913 0.14385056 -0.13090348 0.08047405 -0.24237725 -0.17907315
0.22177488 0.10998464 -0.1715067 -0.028733462 0.21138713 0.18137634 0.19496363 0.2283496
0.20639199 0.11967856 0.23175567 0.23568201 0.05202782 -0.24161568 -0.16067132 0.055732816
-0.17140874 0.06776175 -0.11492208 0.13144678 -0.24025002 -0.050338984 -0.14917746 -0.088006854
0.17857537 -0.21294042 0.16657549 -0.23137477 -0.12680882 -0.24346843 -0.035087794 -0.14997539
0.1854288 0.11064571 -0.19285977 -0.13644162 0.0051976144 0.09420654 -0.22556365 -0.042854637
00000000: c0a3 653e 0e3c 723e 86d0 2e3e cad9 47be
00000010: 70ac febd 84e2 fc3d c609 4d3e d4ce 733e
00000020: 5a45 3c3e bc93 04be c060 90bd c211 2cbe
00000030: ac67 c7bd b867 a6bd ec41 38be c007 3e3d
00000040: eaff 15be 580a a03d 703b f8bc b09f cabc
00000050: 00b5 fcbb 181b ce3d ec54 993d dcbd 4e3e
00000060: fe86 563e ec9d 26be d04e 203e 1875 f1bd
00000070: f215 4dbe 8045 3cbd b4a4 553e f822 743d
00000080: 0cbc e53d 1c89 9d3d 8894 733d 647d 5e3e
00000090: 20c5 3cbd 72c3 363e 7886 7f3d c0d7 043d
000000a0: f4e3 59be e6e9 1ebe 1cf4 143e 4238 073e
000000b0: f83d b5bd 8c53 73be 5651 493e c840 ae3d
000000c0: ca66 01be 92b3 3abe 92ec 1fbe 588e 023d
000000d0: 80a3 363d 92f9 0fbe 0895 95bd ac99 d4bd
000000e0: 2cd7 76be b41c d9bd 8469 d93d 7068 913d
000000f0: 3407 0fbe a041 3dbd 9205 213e c030 533c
00000100: 485d 28bd 20cf 8abc c8fd 303e 308d e23c
00000110: 86c2 60be f0ed ddbc f22b 693e 60d8 ca3d
00000120: 1cbd 85bd b80f 233d a855 453e c651 3ebe
00000130: 82b1 1cbe 4072 c43b f08c 74bd 343c f33d
00000140: 5ecd 4a3e b09c 7dbd d855 32bd 4068 183c
00000150: 6a1b 6fbe 6001 2e3d 64b8 053e d0fc df3c
00000160: 8030 75bd 28a0 6cbd a062 bc3c 80d2 c7bc
00000170: 70ce 733d 0e04 2a3e 0030 0e3d 185e 39bd
00000180: 348e 23be ec49 7ebe 2ec6 0d3e f00a 3c3d
00000190: 4e4a 38be 32bc 42be 0ca8 e8bd e0e1 71bd
000001a0: ac6e 033e 9cfc 8f3d c010 eabd 00fe 353d
000001b0: 2408 863d ecc8 1cbe b84e 11bd 8c71 12be
000001c0: 3800 d93d 3c8a c9bd 6442 ee3d 32d5 4b3e
000001d0: 10c3 fa3d 4832 c4bd 3c2c 423e 8c65 38be
000001e0: c2c7 5a3e 641c 153e 3e50 123e c043 0f3d
000001f0: 389e 29bd 4403 f7bd 803c 0cbd 182c 3ebd
00000200: 40a0 673e 9691 203e 808d f13d 7c03 503e
00000210: 368d 0c3e 80bb c13c 3032 0cbd 1cb6 4e3e
00000220: 8665 08be 54aa fa3d d08d 8abd 805c fcbc
00000230: 4845 91bd c4f7 76be f606 583e 6c28 453e
00000240: 08fb 363e 0c8f 36be 9c1c 33be 9cfe 103e
00000250: 7645 64be e09d 663d 02ac 2e3e 3ce9 a13d
00000260: 00a8 fcb9 c0fc bd3d 7860 be3d 9086 96bd
00000270: 8631 58be e40b 9bbd 3867 363d b4d2 c0bd
00000280: 38a9 22bd d0d7 ff3d c0e3 5b3c c0bc 75be
00000290: f08e 76bd 36bb 62be 98f5 2f3e 90ac dfbc
000002a0: 00ab b7bb 20b4 d9bc 9868 8ebd 8097 1abb
000002b0: ac0e ffbd fa73 5abe 9a1a 51be e094 8fbc
000002c0: a830 7c3e f4af 2dbe 1c06 583e dc5b 4b3e
000002d0: d819 1d3e 6a77 7ebe beab 3ebe ccf8 21be
000002e0: a8d5 2ebd a6c6 3cbe ac92 563e 12c7 633e
000002f0: 4ac0 3bbe 881c a73d 54b4 b03d b069 babc
00000300: d84d a73d 5846 a9bd ec84 2fbe 2aad 19be
00000310: 6a17 623e 6abb 153e 608c 23bd 3a43 39be
00000320: b276 2abe 7026 46bd a0b6 1f3e 94d2 c5bd
00000330: c048 d0bd 80bb 703d d0bc c13c 0043 903b
00000340: daf3 7fbe e006 653d 58cc 8cbd 904d 133e
00000350: 900b 06be 94cf a43d be31 78be f45e 37be
00000360: f418 633e a03f e13d 749f 2fbe 7062 ebbc
00000370: de75 583e b8ba 393e 8ca4 473e 7ad4 693e
00000380: 6c58 533e 081a f53d 5c51 6d3e a056 713e
00000390: 201b 553d 1a6a 77be 0687 24be 1848 643d
000003a0: c685 2fbe acc6 8a3d 445c ebbd fc99 063e
000003b0: 1a04 76be 4030 4ebd fac1 18be f03c b4bd
000003c0: 76dc 363e 0e0d 5abe c492 2a3e 82ed 6cbe
000003d0: 2cda 01be ca4f 79be 38b8 0fbd 2693 19be
000003e0: 0ce1 3d3e 389a e23d 087d 45be 5ab7 0bbe
000003f0: c050 aa3b 5cef c03d 28fa 66be 5888 2fbd

block.attn.c_attn.bias f4 [48]
0.21429461 -0.111147225 0.12621784 0.18988684 -0.21082616 0.16665205 -0.24012 -0.07903701
-0.022234917 0.15916088 0.08151707 0.031445175 0.018269002 0.15241876 -0.05550158 -0.20811713
-0.018722922 0.20580035 -0.10966614 0.12496704 0.22600996 0.20072943 -0.17484754 0.006714016
-0.08470431 0.24038249 0.16152498 -0.20842803 0.21071658 -0.20654666 0.11239359 0.048519284
-0.036925644 0.14980635 0.021455407 0.2255173 -0.04834768 -0.23191112 -0.027455598 0.14506432
0.019174218 0.08866626 0.035081714 0.08536264 -0.089763165 -0.0763689 -0.11340168 0.0670366
00000000: 0c70 5b3e 28a1 e3bd 403f 013e b271 423e
00000010: d0e2 57be d6a6 2a3e 04e2 75be 28de a1bd
00000020: 0026 b6bc 12fb 223e 6cf2 a63d a8cc 003d
00000030: e0a8 953c aa13 1c3e a055 63bd a81c 55be
00000040: d060 99bc 54bd 523e a498 e0bd b8ee ff3d
00000050: 286f 673e 048c 4d3e 3c0b 33be 4001 dc3b
00000060: 7479 adbd d426 763e ce66 253e 286e 55be
00000070: 16c6 573e f880 53be 9c2e e63d 28bc 463d
00000080: 583f 17bd d666 193e 40c3 af3c 02ee 663e
00000090: 3808 46bd 1c7a 6dbe 90ea e0bc be8b 143e
000000a0: 4013 9d3c a896 b53d d8b1 0f3d 9cd2 ae3d
000000b0: c0d5 b7bd 4c67 9cbd 243f e8bd 7c4a 893d

block.attn.c_proj.weight f4 [16, 16]
0.12257427 0.16700777 0.020263016 0.13269234 -0.15472955 -0.057038695 -0.19753194 0.13697174
0.1111919 -0.11143735 -0.015278012 0.23893005 -0.13567546 -0.08585757 -0.11205998 0.11145374
-0.08034325 -0.1237717 0.11331424 -0.21842268 0.0029976368 0.121581346 -0.11590353 -0.03701079
-0.15676042 0.21191877 0.21658927 0.17947063 0.063681036 0.20749107 0.007484466 0.02926749
0.12640238 0.16671774 0.0074056387 -0.034329474 -0.1263569 0.21294934 0.047738463 0.14930454
-0.16020212 -0.15906146 -0.21154016 -0.04490444 0.010746956 -0.16358289 0.19229516 0.10949406
-0.17426363 -0.049412757 -0.16051093 0.21474588 -0.24448821 -0.11060414 -0.11250678 -0.17062873
0.05745405 0.09767401 0.18389288 0.15646493 -0.11226085 -0.12843761 0.061442047 0.044920623
0.23757929 -0.23490632 -0.23980415 -0.20703119 -0.08992794 0.031339526 0.058850735 0.038891762
0.050612032 -0.07585725 0.026296854 -0.14990753 0.20385972 0.18608841 0.16000828 -0.039657682
-0.1145632 0.025444716 -0.21339354 -0.016138107 -0.24594074 0.15266904 -0.24789721 0.13432989
-0.21975127 -0.21295059 -0.17064059 0.022025853 -0.17566764 -0.19607997 -0.01594901 -0.06861591
-0.03930688 0.15950012 0.17008084 -0.009165615 0.042431086 -0.03137365 -0.24876437 0.19148156
-0.17971045 -0.037893444 -0.22446865 0.24006706 0.1763815 0.09684065 -0.17996249 0.043986052
-0.008357257 -0.1408667 0.047382623 0.10609254 -0.08026698 -0.124022454 0.13303217 0.08867553
-0.048226 -0.11509684 -0.10780516 0.23985949 0.16325182 -0.09273517 -0.18145943 0.21661213
-0.042491645 -0.18408903 -0.12261534 0.026428044 0.032036573 -0.01208958 0.15948865 -0.071419895
0.06622499 -0.17100781 -0.24847901 -0.116478264 -0.23457727 0.13521284 -0.08714607 -0.120425165
0.073434144 0.07960382 -0.06947547 0.0035389662 -0.121481895 -0.10335606 -0.15296963 -0.14144754
-0.15934497 -0.14885801 -0.12315002 0.03074339 0.19635838 -0.1324844 -0.018862426 0.09687421
-0.2235308 -0.19267705 0.1278274 0.03914225 -0.047266424 0.1744627 0.004431963 0.14544395
-0.104313225 0.07588819 -0.18618265 -0.05946186 -0.028440714 -0.13169172 -0.22708264 0.12672076
-0.004004538 -0.07766351 -0.017335594 -0.14094737 -0.13635725 -0.026807964 0.030614823 0.14317882
0.06679574 -0.24646434 -0.07638633 -0.14718983 -0.08573118 0.122502714 -0.052354395 0.04028237
-0.008669138 -0.14014095 -0.09596899 0.13889194 0.13568562 -0.21493259 -0.23361391 -0.12216964
0.16058424 0.24628246 -0.10489142 0.048306763 0.007907778 -0.018554151 -0.012753576 0.12935331
-0.05776319 0.19131303 0.19603199 -0.12518731 -0.06314322 0.20969585 0.23492509 0.21150371
0.10496333 -0.080106616 -0.0982714 0.24740717 0.03681171 0.20394927 -0.12365064 0.06264463
0.2218807 0.08317903 -0.18651435 0.020049483 -0.2423473 -0.19922781 -0.1686342 0.06213066
0.23006403 0.026135743 0.16112614 0.0078501105 -0.23897833 0.11408901 -0.08325142 -0.20502645
0.1201109 0.21982625 0.016631842 0.23958212 0.1338565 -0.19482478 -0.1926611 -0.08163679
0.096431315 -0.062803626 0.22593501 -0.14808586 -0.07744825 0.17696482 0.10134992 0.1432167
00000000: 3808 fb3d 1604 2b3e a0fe a53c 80e0 073e
00000010: 6c71 1ebe 68a1 69bd d045 4abe 5242 0c3e
00000020: 94b8 e33d 4439 e4bd a050 7abc 14aa 743e
00000030: 82ee 0abe 18d6 afbd b47f e5bd dc41 e43d
00000040: 008b a4bd 047c fdbd 4c11 e83d 32aa 5fbe
00000050: 0074 443b a4ff f83d d45e edbd a098 17bd
00000060: ce85 20be 3c01 593e 94c9 5d3e 26c7 373e
00000070: 346b 823d 8a78 543e 4040 f53b 60c2 ef3c
00000080: a06f 013e 0eb8 2a3e 00ab f23b 109d 0cbd
00000090: b463 01be 640f 5a3e 6889 433d 4ae3 183e
000000a0: 060c 24be 02e1 22be fc9d 58be b8ed 37bd
000000b0: 0014 303c 4682 27be 06e9 443e 6c3e e03d
000000c0: 2a72 32be 0865 4abd fa5c 24be 58e6 5b3e
000000d0: 1e5b 7abe 6c84 e2bd f469 e6bd 4cb9 2ebe
000000e0: f054 6b3d 5009 c83d 6a4e 3c3e 5838 203e
000000f0: 04e9 e5bd 2685 03be a8aa 7b3d b0fe 373d
00000100: fc47 733e 488b 70be 388f 75be fcff 53be
00000110: 242c b8bd e05d 003d 780d 713d f84c 1f3d
00000120: 904e 4f3d 0c5b 9bbd 806c d73c 5c81 19be
00000130: 9ac0 503e f68d 3e3e 36d9 233e 1870 22bd
00000140: 1ca0 eabd 7071 d03c d683 5abe 1034 84bc
00000150: e4d7 7bbe 4655 1c3e c4d8 7dbe c68d 093e
00000160: 7a06 61be b80f 5abe 68bc 2ebe 906f b43c
00000170: 38e2 33be 30c9 48be 80a7 82bc 8086 8cbd
00000180: 4000 21bd 0054 233e ac29 2e3e 602b 16bc
00000190: 38cc 2d3d a881 00bd 16bc 7ebe be13 443e
000001a0: 0406 38be 2836 1bbd 1cdb 65be 24d4 753e
000001b0: 5a9d 343e 6454 c63d 1648 38be b82a 343d
000001c0: e0ec 08bc 5c3f 10be 4814 423d 0c47 d93d
000001d0: 0463 a4bd 7cff fdbd 9639 083e 849b b53d
000001e0: a088 45bd e4b7 ebbd f4c8 dcbd ba9d 753e
000001f0: 7c2b 273e f0eb bdbd 80d0 39be 92cf 5d3e
00000200: b80b 2ebd d681 3cbe c01d fbbd a07f d83c
00000210: c838 033d 6013 46bc fe50 233e 9844 92bd
00000220: f8a0 873d ac1c 2fbe 4871 7ebe 288c eebd
00000230: 0635 70be 3c75 0a3e a479 b2bd 78a1 f6bd
00000240: a464 963d 5407 a33d 2849 8ebd 00ee 673b
00000250: 80cb f8bd 58ac d3bd 12a4 1cbe a0d7 10be
00000260: 542b 23be 3c6e 18be 1436 fcbd 90d9 fb3c
00000270: 2c12 493e fea9 07be 6085 9abc fc65 c63d
00000280: 42e5 64be 224d 45be 30e5 023e a053 203d
00000290: 709a 41bd 5aa6 323e 003a 913b 42ef 143e
000002a0: 2ca2 d5bd 446b 9b3d aaa6 3ebe 488e 73bd
000002b0: 80fc e8bc 32da 06be 5a88 68be 16c3 013e
000002c0: 8038 83bb 0c0e 9fbd 6003 8ebc 8254 10be
000002d0: 3ca1 0bbe 609c dbbc f0cb fa3c 789d 123e
000002e0: 34cc 883d 2661 7cbe 7070 9cbd eeb8 16be
000002f0: d493 afbd b4e2 fa3d 9071 56bd 20ff 243d
00000300: 0009 0ebc 1c81 0fbe 648b c4bd b039 0e3e
00000310: 2cf1 0a3e 4a17 5cbe 7c38 6fbe 1434 fabd
00000320: 3270 243e 7831 7c3e 50d1 d6bd 50dd 453d
00000330: a08f 013c e0fe 97bc 60f4 50bc 3275 043e
00000340: 1899 6cbd 90e7 433e 9cbc 483e 1a31 00be
00000350: 3c51 81bd 82ba 563e 3490 703e 6e94 583e
00000360: 04f7 d63d f00e a4bd 8442 c9bd 4e58 7d3e
00000370: e0c7 163d 14d8 503e 8c3c fdbd d44b 803d
00000380: b234 633e c459 aa3d 9efd 3ebe d03e a43c
00000390: e429 78be 6002 4cbe 72ae 2cbe b87c 7e3d
000003a0: e895 6b3e a01a d63c 40fe 243e c09d 003c
000003b0: bcb6 74be 80a7 e93d b87f aabd 74f2 51be
000003c0: b4fc f53d 221a 613e 803f 883c 0455 753e
000003d0: ae11 093e 2680 47be f448 45be 3031 a7bd
000003e0: c87d c53d 309f 80bd 825b 673e d2a3 17be
000003f0: 309d 9ebd 4436 353e 8c90 cf3d 66a7 123e

block.attn.c_proj.bias f4 [16]
0.10093674 0.22185573 -0.0937801 0.13180414 0.07815617 -0.12183359 0.080819845 -0.1901685
0.07152063 -0.094637364 0.17377737 -0.027110934 0.14039442 0.057641715 0.17294839 0.18552515
00000000: ecb7 ce3d 262e 633e c80f c0bd aaf7 063e
00000010: 5810 a03d e483 f9bd e084 a53d 88bb 42be
00000020: 6879 923d 3cd1 c1bd b2f2 313e c017 debc
00000030: 8ec3 0f3e b819 6c3d 6219 313e 4efa 3d3e

block.ln2.weight f4 [16]
1.0 1.0 1.0 1.0 1.0 1.0 1.0 1.0
1.0 1.0 1.0 1.0 1.0 1.0 1.0 1.0
00000000: 0000 803f 0000 803f 0000 803f 0000 803f
00000010: 0000 803f 0000 803f 0000 803f 0000 803f
00000020: 0000 803f 0000 803f 0000 803f 0000 803f
00000030: 0000 803f 0000 803f 0000 803f 0000 803f

block.ln2.bias f4 [16]
0.0 0.0 0.0 0.0 0.0 0.0 0.0 0.0
0.0 0.0 0.0 0.0 0.0 0.0 0.0 0.0
00000000: 0000 0000 0000 0000 0000 0000 0000 0000
00000010: 0000 0000 0000 0000 0000 0000 0000 0000
00000020: 0000 0000 0000 0000 0000 0000 0000 0000
00000030: 0000 0000 0000 0000 0000 0000 0000 0000

block.mlp.c_fc.weight f4 [64, 16]
-0.15201327 -0.08484393 -0.012613237 0.16226235 0.139687 -0.11300135 0.010849595 0.121168524
-0.24057662 -0.08731121 0.19446841 -0.024768054 0.08099696 -0.20927164 0.0765146 -0.13979003
0.08154854 0.049907357 -0.08381924 0.028995037 -0.1431739 0.051273823 -0.123667896 -0.21429548
0.18349501 -0.15963593 -0.056144804 0.065666735 0.07330951 -0.029000998 0.10103661 -0.06021002
0.09640515 -0.19297826 0.010634899 -0.18934897 0.06922549 -0.120049566 0.18474445 -0.18408558
-0.22360879 -0.061974466 0.04654163 -0.18401241 -0.22988304 0.1128633 0.15920562 0.13996977
0.17904362 0.06769249 -0.06989682 0.17064121 0.18218365 -0.012317181 -0.030054301 0.17673045
0.23126477 -0.2335644 -0.14245147 0.16802391 -0.046061903 0.102188766 -0.20636013 -0.19402522
-0.09328601 0.0056224763 -0.057332993 -0.14510384 -0.036239326 -0.078324646 -0.2276623 0.075698614
-0.12822905 -0.14052889 0.111004084 -0.19577366 -0.13140693 0.08427045 -0.17721042 0.14780882
0.20297706 -0.15701401 0.03122732 0.12589923 -0.12705842 -0.14030144 0.08412886 0.018092066
0.199934 0.2462084 0.09414789 0.1342822 -0.19752139 -0.027238637 -0.06713611 0.122846395
-0.18392056 0.09323725 -0.11876556 0.24728808 0.05548033 -0.042276412 -0.13719782 -0.13846448
-0.09610084 -0.06314814 -0.039833993 0.14113751 -0.20208403 -0.12387219 0.19235232 -0.014361352
-0.1755633 -0.094760835 -0.11294535 -0.05096537 0.22459885 -0.073937386 0.09637123 0.123998135
-0.067652345 0.24026671 0.14708924 0.07479569 -0.050460875 0.013735771 0.18603504 -0.20232356
0.12558135 0.011392534 0.17210403 -0.044672817 0.19672632 -0.21435222 -0.10364759 -0.1915561
0.20278662 0.030677617 -0.2362225 -0.18574652 -0.22682649 0.08989623 0.18928435 -0.09094432
-0.082291126 -0.022723436 0.06313822 -0.07935485 -0.22387236 0.09516811 0.075780034 -0.055229634
0.23329553 0.009517908 -0.24515489 -0.20129699 -0.10286513 -0.0033041239 0.1916708 -0.075856656
0.09045684 -0.12379557 -0.014354378 0.14372948 0.034107864 -0.07271263 -0.16176727 -0.19834876
-0.1865932 -0.24255586 -0.1413835 -0.2322641 0.22467786 -0.23924449 0.237955 -0.15911841
0.014894068 -0.027183801 0.04695314 0.0751431 0.08787337 -0.028440058 0.06729177 -0.0375565
0.23520914 0.23705924 0.23254582 0.22269285 0.105908245 -0.18681219 -0.02166307 -0.12913436
-0.13045949 0.23700082 -0.0069045424 -0.19505388 0.09154531 0.07316312 0.056066692 0.06539926
0.15855187 0.041980594 0.22811499 0.17097664 0.14058167 -0.09661153 0.24845445 0.24558511
-0.09177774 0.027664185 -0.20020393 0.10813367 -0.020145357 -0.21297932 0.002818048 -0.1581032
-0.13478148 -0.2290904 -0.18393368 0.13510859 0.021527737 0.20764613 0.12276393 -0.08713329
0.22905669 -0.15258685 0.19465178 -0.08644268 -0.08456853 -0.12302518 -0.017291635 0.13504821
-0.087509215 0.17084438 -0.121754736 0.19078049 0.22349882 -0.15092918 0.026069492 0.19514385
-0.027201265 -0.19386092 -0.001832664 -0.1706008 -0.045660347 0.2051501 0.1765306 0.16634035
-0.14892688 -0.13638139 0.0069727898 0.1594497 -0.18121862 -0.13173473 -0.24404126 0.11815518
00000000: 5ea9 1bbe a8c2 adbd c0a7 4ebc 1a28 263e
00000010: 1c0a 0f3e 406d e7bd 80c2 313c 3427 f83d
00000020: b859 76be 38d0 b2bd ba22 473e 60e6 cabc
00000030: bce1 a53d 4e4b 56be b0b3 9c3d 1e25 0fbe
00000040: ec02 a73d a86b 4c3d 6ca9 abbd 0087 ed3c
00000050: 2e9c 12be 8004 523d 9845 fdbd 4670 5bbe
00000060: 1ee6 3b3e 9a77 23be 18f8 65bd 487c 863d
00000070: 4c23 963d 8093 edbc 48ec ce3d c89e 76bd
00000080: 1070 c53d 189c 45be 003e 2e3c b2e4 41be
00000090: 18c6 8d3d 8cdc f5bd a62d 3d3e ee80 3cbe
000000a0: b4f9 64be f0d8 7dbd 70a2 3e3d c06d 3cbe
000000b0: 7666 6bbe e024 e73d cc06 233e 3c54 0f3e
000000c0: 3657 373e 5ca2 8a3d 1026 8fbd 92bc 2e3e
000000d0: 5a8e 3a3e 00ce 49bc 7034 f6bc d4f8 343e
000000e0: acd0 6c3e 822b 6fbe ccde 11be 760e 2c3e
000000f0: 68ab 3cbd 5848 d13d 1250 53be 8cae 46be
00000100: bc0c bfbd c03c b83b 00d6 6abd 1a96 14be
00000110: b06f 14bd ac68 a0bd 4e20 69be e007 9b3d
00000120: 7a4e 03be cee6 0fbe 1c56 e33d e478 48be
00000130: 8a8f 06be fc95 ac3d a676 35be 325b 173e
00000140: 38d9 4f3e 48c8 20be 70d0 ff3c baeb 003e
00000150: 9a1b 02be 2eab 0fbe c04b ac3d d035 943c
00000160: 80bb 4c3e 0e1e 7c3e 9cd0 c03d 4681 093e
00000170: 0c43 4abe 9023 dfbc a87e 89bd e496 fb3d
00000180: ac55 3cbe 2cf3 be3d 5c3b f3bd 1639 7d3e
00000190: 583f 633d 082a 2dbd 967d 0cbe a2c9 0dbe
000001a0: 84d0 c4bd d053 81bd f828 23bd 5a86 103e
000001b0: 1eef 4ebe b4b0 fdbd 02f8 443e e04b 6bbc
000001c0: dec6 33be f811 c2bd e44f e7bd 10c1 50bd
000001d0: 3efd 653e 7c6c 97bd 485e c53d bcf2 fd3d
000001e0: 508d 8abd 7a08 763e 909e 163e 7c2e 993d
000001f0: 10b0 4ebd 000c 613c f87f 3e3e e82d 4fbe
00000200: 6698 003e c0a7 3a3c 0a3c 303e d8fa 36bd
00000210: a072 493e 267f 5bbe 3045 d4bd 4827 44be
00000220: 4ca7 4f3e a04f fb3c 50e4 71be 5634 3ebe
00000230: 3445 68be 841b b83d c2d3 413e 0441 babd
00000240: 4088 a8bd 8026 babc 9c4e 813d cc84 a2bd
00000250: cc3e 65be 80e7 c23d 9032 9b3d 7838 62bd
00000260: 06e5 6e3e 00f1 1b3c e209 7bbe cc20 4ebe
00000270: f4aa d2bd 008a 58bb 5a45 443e bc5a 9bbd
00000280: 7041 b93d 8888 fdbd a02e 6bbc d22d 133e
00000290: b0b4 0b3d 5cea 94bd 52a6 25be f01b 4bbe
000002a0: 4a12 3fbe 9060 78be d6c6 10be a4d6 6dbe
000002b0: f411 663e 82fc 74be 7aaa 733e f0ef 22be
000002c0: 4006 743c 90b0 debc f051 403d a0e4 993d
000002d0: f4f6 b33d 20fb e8bc 44d0 893d d8d4 19bd
000002e0: aada 703e a8bf 723e 7e20 6e3e 9809 643e
000002f0: 6ce6 d83d b24b 3fbe c076 b1bc cc3b 04be
00000300: 2c97 05be 58b0 723e 803f e2bb 34bc 47be
00000310: 1c7c bb3d 8cd6 953d 30a6 653d 0cf0 853d
00000320: 6c5b 223e d8f3 2b3d fa96 693e 8014 2f3e
00000330: a4f4 0f3e 44dc c5bd d86a 7e3e aa7a 7b3e
00000340: f8f5 bbbd 00a0 e23c 4202 4dbe 3075 dd3d
00000350: e007 a5bc 4017 5abe 00af 383b cee5 21be
00000360: 2804 0abe ac96 6abe 1c59 3cbe e859 0a3e
00000370: f05a b03c 30a1 543e a86b fb3d f072 b2bd
00000380: d68d 6a3e ba3f 1cbe cc52 473e dc08 b1bd
00000390: 4432 adbd a0f4 fbbd 30a7 8dbc 144a 0a3e
000003a0: 0838 b3bd d4f1 2e3e 8c5a f9bd f65b 433e
000003b0: e0dc 643e 2e8d 1abe b08f d53c cad3 473e
000003c0: 30d5 debc 7a83 46be 0036 f0ba fab1 2ebe
000003d0: 5806 3bbd de12 523e 70c4 343e 2055 2a3e
000003e0: 4a80 18be 90a7 0bbe 007c e43b c846 233e
000003f0: 6091 39be 78e5 06be f4e5 79be 58fb f13d

block.mlp.c_fc.bias f4 [64]
0.11964157 0.07115871 -0.12333405 -0.15669614 -0.006152749 0.24457416 -0.20369095 -0.135488
-0.054110616 0.086232305 0.048739552 -0.05867088 -0.21494901 -0.036071032 0.17049563 0.006957352
-0.012622595 0.11118245 0.21349347 -0.20063499 -0.062549025 0.112948865 -0.2245433 -0.08451718
0.064599216 -0.21261558 0.043158263 -0.05327034 0.12678501 -0.23135474 0.19014573 -0.03059268
-0.19404486 -0.06147352 0.04023373 0.2413592 0.07022697 0.16737151 -0.09588924 -0.19200042
-0.21327451 -0.19598779 0.13249475 0.088768154 0.18920526 -0.004918903 0.08115396 0.07921341
0.06128046 0.14999908 0.028980494 -0.12708631 -0.13450417 0.16357556 0.23017228 0.14963716
-0.13515732 -0.027871102 -0.14063847 0.06587896 -0.02333939 -0.109526336 -0.100112915 -0.08342981
00000000: a406 f53d a8bb 913d 9096 fcbd f474 20be
00000010: 009d c9bb a671 7a3e 5c94 50be 5ebd 0abe
00000020: 18a3 5dbd 909a b03d 20a3 473d e050 70bd
00000030: 981b 5cbe 38bf 13bd 6896 2e3e 80fa e33b
00000040: 00cf 4ebc a0b3 e33d 089e 5a3e 4273 4dbe
00000050: b419 80bd bc51 e73d aeee 65be 5817 adbd
00000060: 984c 843d e6b7 59be b8c6 303d 0032 5abd
00000070: eed3 013e 42e8 6cbe 90b5 423e 809d fabc
00000080: b2b3 46be a8cb 7bbd 20cc 243d de26 773e
00000090: 28d3 8f3d 7063 2b3e 9461 c4bd c29b 44be
000000a0: a264 5abe 06b1 48be b4ac 073e 14cc b53d
000000b0: 06bf 413e c02e a1bb 0c34 a63d a43a a23d
000000c0: 3801 7b3d 5c99 193e 8068 ed3c ea22 02be
000000d0: 76bb 09be 5a80 273e 48b2 6b3e 7c3a 193e
000000e0: ae66 0abe f051 e4bc 8803 10be 8ceb 863d
000000f0: 4032 bfbc 584f e0bd 0008 cdbd 40dd aabd

block.mlp.c_proj.weight f4 [16, 64]
-0.050091192 0.107896686 -0.024499342 -0.048847586 0.11388999 -0.048098296 0.11402695 -0.065356806
0.009237528 0.111533985 -0.08470963 0.10035615 -0.035790265 -0.077123895 -0.05547899 0.1121937
-0.0222646 0.09750831 -0.010364354 -0.05926311 -0.09441365 -0.096275255 0.05880417 0.09111011
-0.09354393 -0.11414203 0.040031135 0.013820291 0.067258015 0.062832475 -0.006920263 -0.004281208
0.10548514 0.088353366 0.043964222 -0.07997741 0.02283676 -0.058487207 -0.046580374 -0.08661622
0.09205249 0.015454128 -0.08416882 0.015648961 0.07873292 0.03309384 0.061265156 -0.10952461
-0.011170745 0.06936175 -0.11385107 -0.033750936 0.06473401 -0.1011709 0.0234669 -0.107980475
0.07099149 -0.118801475 -0.01398018 0.030504137 0.047601357 0.054567397 0.048763677 -0.029868022
0.046101734 -0.045757756 -0.106756404 0.038452134 -0.0055698305 0.04996869 0.109847516 0.11910388
-0.11784658 0.115997225 -0.022018835 0.06586474 0.08556138 -0.05482088 0.034490913 0.06490828
0.048212096 0.024784967 -0.058088496 0.116109714 -0.099185914 0.018029839 -0.08504583 -0.060553253
-0.06948887 0.116044775 0.0719541 0.109162614 -0.06855011 -0.016486287 0.09419404 0.002313286
-0.030127272 -0.038418487 -0.0012191087 -0.028954461 -0.009889886 -0.014116749 0.08516966 -0.099133804
0.0066871643 0.0037967712 0.11730388 -0.040755868 -0.10650319 -0.11490773 -0.10422896 -0.1198362
-0.11853607 -0.0103393495 0.04846537 -0.08754738 -0.023920342 0.0484477 0.10916881 -0.09504607
0.05987218 -0.018365726 -0.02546981 0.090594664 0.03915094 0.12286219 0.09250179 -0.039272875
0.061662912 -0.07740843 -0.047595397 -0.08485167 0.061546266 0.09698637 -0.038124472 -0.01050739
0.11588982 0.011655375 0.0514172 0.11653608 0.079008386 0.0025717467 0.11272916 0.03539364
-0.08090858 -0.06492968 0.00970459 0.095194325 0.02272746 -0.09593363 0.039985836 0.022744387
0.11037193 0.04002832 -0.1199425 -0.023680553 -0.1075671 0.069057375 -0.045680925 -0.102146044
-0.11291389 0.113590226 0.0068005025 0.05768892 0.07189061 -0.120685816 0.081275105 0.047332257
0.026526362 -0.05397199 -0.021691173 -0.066189766 0.11011532 -0.12097956 0.107359454 0.059810862
-0.007243678 0.10443844 0.04690878 0.047255382 0.014328361 -0.0733982 0.022658005 0.0772071
0.050595015 0.063691705 -0.04092224 -0.04669188 -0.003194958 0.059342116 0.07059431 0.11996947
0.11214636 0.1151136 0.021533921 0.09818135 0.05319433 -0.062175855 0.083712935 -0.052115083
-0.03580068 -0.012621567 -0.08133267 -0.072672784 0.04791005 -0.003940031 -0.024637356 -0.087966666
-0.0623243 -0.029589176 -0.07657701 0.09607357 -0.02368781 0.036186382 -0.06282027 0.02898623
-0.035346687 -0.01686126 -0.11867882 0.07830991 -0.086066276 -0.0022836477 0.10928927 -0.00677678
-0.058542714 0.081184894 0.10615079 0.05671905 0.09632033 -0.015322462 -0.10818355 -0.08363731
-0.120752454 -0.02280669 -0.09734742 0.07463899 -0.10278778 -0.10471682 0.106846616 0.11099386
-0.04245211 0.04666324 0.016348734 -0.07707892 -0.0070322305 0.0002938658 -0.081040606 0.0074153095
0.06825358 0.09297776 0.08258137 -0.04515621 -0.041530162 -0.05862671 -0.025753632 0.10938518
00000000: 6c2c 4dbd f0f8 dc3d d8b2 c8bc 6814 48bd
00000010: 283f e93d b802 45bd f686 e93d cad9 85bd
00000020: 0059 173c ee6b e43d 3e7c adbd 8687 cd3d
00000030: d098 12bd 22f3 9dbd f03d 63bd d0c5 e53d
00000040: 4064 b6bc 70b2 c73d 40cf 29bc e0bd 72bd
00000050: f25b c1bd f62b c5bd a4dc 703d f097 ba3d
00000060: f693 bfbd 4cc3 e9bd b0f7 233d 806e 623c
00000070: 92be 893d 50ae 803d 60c3 e2bb 6049 8cbb
00000080: 9808 d83d 9cf2 b43d d413 343d 32cb a3bd
00000090: 2814 bb3c 4890 6fbd 10cb 3ebd d863 b1bd
000000a0: 0486 bc3d 5033 7d3c b460 acbd 4032 803c
000000b0: ba3e a13d 688d 073d 2cf1 7a3d 704e e0bd
000000c0: 8005 37bc 880d 8e3d c02a e9bd 6c3e 0abd
000000d0: 4493 843d b032 cfbd a83d c03c de24 ddbd
000000e0: fc63 913d 304e f3bd 200d 65bc d0e3 f93c
000000f0: a4f9 423d 1082 5f3d 6cbc 473d c8ad f4bc
00000100: 2cd5 3c3d 7c6c 3bbd 1aa3 dabd fc7f 1d3d
00000110: 2083 b6bb f8ab 4c3d bcf7 e03d bcec f33d
00000120: 8c59 f1bd f48f ed3d d860 b4bc 18e4 863d
00000130: ce3a af3d dc8b 60bd 5846 0d3d a2ee 843d
00000140: 0c7a 453d d809 cb3c 34ee 6dbd eeca ed3d
00000150: fc21 cbbd 50b3 933c 822c aebd b006 78bd
00000160: 2e50 8ebd e2a8 ed3d ac5c 933d a690 df3d
00000170: 0064 8cbd 400e 87bc cee8 c03d 809a 173b
00000180: 78cd f6bc b45c 1dbd 80ca 9fba e831 edbc
00000190: 3009 22bc f049 67bc 6e6d ae3d aa06 cbbd
000001a0: 0020 db3b 40d3 783b 043d f03d a0ef 26bd
000001b0: 581e dabd be54 ebbd fe75 d5bd ae6c f5bd
000001c0: 0ac3 f2bd 6066 29bc a083 463d 0a4c b3bd
000001d0: 98f4 c3bc 1871 463d e693 df3d 84a7 c2bd
000001e0: 883c 753d b873 96bc 10a6 d0bc b289 b93d
000001f0: bc5c 203d 2c9f fb3d 9471 bd3d 98dc 20bd
00000200: 4092 7c3d 5088 9ebd 64f3 42bd b6c6 adbd
00000210: f017 7c3d caa0 c63d 6828 1cbd 3027 2cbc
00000220: a457 ed3d 30f6 3e3c d89a 523d 78aa ee3d
00000230: 26cf a13d c08a 283b 8cde e63d ecf8 103d
00000240: 66b3 a5bd daf9 84bd 0000 1f3c 3ef5 c23d
00000250: f02e ba3c da78 c4bd 30c8 233d 7052 ba3c
00000260: ae0a e23d bcf4 233d 6aa4 f5bd b8fd c1bc
00000270: 244c dcbd f46d 8d3d ec1b 3bbd f231 d1bd
00000280: 663f e7bd fea1 e83d c0d6 de3b 384b 6c3d
00000290: 623b 933d 202a f7bd 9073 a63d 78df 413d
000002a0: d04d d93c bc11 5dbd b0b1 b1bc 808e 87bd
000002b0: 2484 e13d 22c4 f7bd 46df db3d 3cfc 743d
000002c0: 605c edbb d2e3 d53d 6c23 403d dc8e 413d
000002d0: 80c1 6a3c cc51 96bd 489d b93c c21e 9e3d
000002e0: b83c 4f3d cc70 823d 149e 27bd fc3f 3fbd
000002f0: 8062 51bb b810 733d c093 903d 8eb2 f53d
00000300: feac e53d aec0 eb3d e867 b03c 4e13 c93d
00000310: 4ce2 593d 1cac 7ebd b071 ab3d a076 55bd
00000320: bca3 12bd b0ca 4ebc be91 a6bd 78d5 94bd
00000330: 543d 443d 601b 81bb 48d4 c9bc de27 b4bd
00000340: c447 7fbd 0065 f2bc 68d4 9cbd 38c2 c43d
00000350: f00c c2bc 2c38 143d eaa7 80bd 8874 ed3c
00000360: b0c7 10bd a020 8abc e20d f3bd f260 a03d
00000370: 8443 b0bd 40a9 15bb 0ed3 df3d c00f debb
00000380: 7cca 6fbd 4444 a63d 9665 d93d 3c52 683d
00000390: 9843 c53d 100b 7bbc 568f ddbd 0a4a abbd
000003a0: 104d f7bd 18d5 babc 165e c7bd 54dc 983d
000003b0: 6682 d2bd c675 d6bd 66d2 da3d c050 e33d
000003c0: 44e2 2dbd f421 3f3d c8ed 853c 8edb 9dbd
000003d0: a06e e6bb 0012 9a39 9ef8 a5bd 20fc f23b
000003e0: 88c8 8b3d 206b be3d 6c20 a93d b8f5 38bd
000003f0: 881b 2abd 9022 70bd 48f9 d2bc 5605 e03d

block.mlp.c_proj.bias f4 [16]
0.07044558 0.023756161 -0.080064446 0.08659102 0.06998621 -0.06959525 0.08119172 0.11276527
0.062711865 -0.08472726 0.08888435 0.12045255 0.029170156 0.049304217 0.11506002 -0.06356442
00000000: c645 903d 489c c23c d4f8 a3bd a256 b13d
00000010: ee54 8f3d f487 8ebd d847 a63d 7af1 e63d
00000020: 146f 803d 7c85 adbd 0009 b63d d4af f63d
00000030: 40f6 ee3c 38f3 493d 96a4 eb3d 102e 82bd

blocks.0.ln1.weight f4 [16]
1.0 1.0 1.0 1.0 1.0 1.0 1.0 1.0
1.0 1.0 1.0 1.0 1.0 1.0 1.0 1.0
00000000: 0000 803f 0000 803f 0000 803f 0000 803f
00000010: 0000 803f 0000 803f 0000 803f 0000 803f
00000020: 0000 803f 0000 803f 0000 803f 0000 803f
00000030: 0000 803f 0000 803f 0000 803f 0000 803f

blocks.0.ln1.bias f4 [16]
0.0 0.0 0.0 0.0 0.0 0.0 0.0 0.0
0.0 0.0 0.0 0.0 0.0 0.0 0.0 0.0
00000000: 0000 0000 0000 0000 0000 0000 0000 0000
00000010: 0000 0000 0000 0000 0000 0000 0000 0000
00000020: 0000 0000 0000 0000 0000 0000 0000 0000
00000030: 0000 0000 0000 0000 0000 0000 0000 0000

blocks.0.attn.c_attn.weight f4 [48, 16]
0.05445709 0.053046927 -0.17201607 -0.09812344 0.03134204 0.18387963 0.19129305 -0.1703345
-0.22126782 -0.22001688 0.008047248 0.1422372 -0.19690482 -0.10625587 -0.10979387 -0.061534457
-0.18319161 0.20555085 -0.19744056 -0.022563158 -0.19627002 0.08797597 -0.08436307 -0.005271244
-0.05187301 0.09164568 0.119030714 0.15036005 -0.23170632 -0.18496296 -0.09840186 0.19174917
-0.1023979 0.018594526 0.04025595 0.19690134 -0.063388586 -0.09829783 -0.114673905 -0.02245418
0.24478367 -0.06679353 0.16628887 -0.15518267 -0.11698485 0.10775022 -0.122423 -0.10144639
-0.0781056 0.0016682058 -0.23400943 0.031086447 -0.20615472 -0.140153 -0.16592492 0.1412635
-0.18976445 -0.022730483 0.06786368 0.17690076 0.12875473 0.035849664 -0.23993953 0.17454442
0.19852097 0.098756246 0.024083523 0.15631373 0.24739027 0.1024474 0.20705709 -0.0012480493
-0.21769024 -0.21190755 -0.24011843 0.24940594 0.23581243 0.16121866 -0.22732303 0.16261902
0.20331892 -0.152571 -0.22449073 0.2324492 0.22752984 -0.20521495 -0.16960792 0.22547176
0.19164942 -0.14840277 0.20516713 -0.1857283 -0.0987458 0.10367908 0.14665216 -0.123132266
-0.17747848 -0.23164329 0.243971 -0.08534628 0.1397232 -0.1934514 -0.041113008 -0.13057762
0.08141902 -0.12740594 -0.035198025 -0.16864066 -0.22392361 0.033500977 0.070054926 0.21383257
-0.14279611 -0.2417821 0.249421 -0.118339226 0.16400251 -0.14263164 -0.20173246 -0.13181794
0.03946687 0.07260603 -0.11053326 0.059767224 -0.16530062 0.15747242 0.17769419 -0.009343682
0.037042096 0.16972648 -0.044895645 -0.047122788 0.16008024 0.082467616 -0.23665023 0.11404899
0.19959377 0.09172375 -0.181534 -0.12502703 -0.1721567 -0.151109 -0.2605203 -0.14516917
-0.17215537 -0.04367055 0.13763715 -0.24971913 0.10957426 0.2490739 0.13964763 -0.055157345
-0.07638855 -0.20360258 -0.1400191 0.19495483 0.13126141 0.103677 -0.10862548 -0.24781686
-0.019418884 -0.15351959 -0.22725955 -0.004942818 -0.14167587 -0.21085533 0.09293796 -0.13535655
0.041087978 0.23498376 0.11444941 0.062352646 -0.107061945 0.12716186 0.11478515 0.116930574
-0.23137757 0.19668119 0.2155432 0.019969046 -0.19973369 0.10294668 -0.14043255 -0.11797638
-0.010250513 0.10059501 0.034963425 0.08216076 0.14070196 0.055130318 0.17155361 -0.18184797
0.061123017 0.06737494 0.049057137 0.061064903 -0.19625647 -0.0030505955 0.2401152 0.10603999
-0.1106237 0.17917004 -0.15285496 0.18018425 0.07516433 -0.20420536 -0.022590028 0.07867931
0.01983176 -0.10423667 0.046537142 0.00307501 -0.1453726 0.11726817 -0.08901027 0.0011295808
0.032124784 0.002266004 0.013850238 0.04749833 -0.17877927 -0.17075528 -0.1683642 0.21529818
-0.117528096 -0.15690532 -0.18327397 0.120003656 -0.24551381 -0.1443265 -0.1547517 -0.14453375
0.17472453 0.20451489 -0.23137853 -0.09376579 0.09812779 0.18571454 0.11688783 -0.1575057
0.069619074 0.2217186 -0.08319412 -0.063763954 -0.04463413 -0.037009943 0.21386477 -0.019038146
-0.23911871 0.042346284 -0.029251778 0.12568073 0.2275687 -0.1373886 -0.11136941 -0.04167482
00000000: 660e 5f3d bc47 593d fb24 30be f1f4 c8bd
00000010: 8360 003d f14a 3c3e 53e2 433e 2b6c 2ebe
00000020: 0894 62be 1b4c 61be 9bd8 033c a1a6 113e
00000030: 6ba1 49be ad9c d9bd 9cdb e0bd 8e0b 7cbd
00000040: 9596 3bbe ec7b 523e dc2d 4abe 5fd6 b8bc
00000050: 02fb 48be bf2c b43d 8cc6 acbd 66ba acbb
00000060: cb78 54bd bbb0 bb3d 60c6 f33d fcf7 193e
00000070: 6c44 6dbe ee66 3dbe ea86 c9bd e559 443e
00000080: fdb5 d1bd 8c53 983c 6ce3 243d 81a0 493e
00000090: e0d1 81bd 5f50 c9bd 27da eabd d4f1 b7bc
000000a0: 92a8 7a3e 0ccb 88bd a147 2a3e 35e8 1ebe
000000b0: c195 efbd 26ac dc3d e9b8 fabd 20c3 cfbd
000000c0: d4f5 9fbd b3a7 da3a 2ba0 6fbe 01a9 fe3c
000000d0: 391a 53be 4584 0fbe 39e8 29be 61a7 103e
000000e0: 9d51 42be 4735 babc 1dfc 8a3d 7925 353e
000000f0: 48d8 033e 19d7 123d b5b2 75be c6bb 323e
00000100: 1549 4b3e b740 ca3d cf4a c53c b510 203e
00000110: e053 7d3e f1cf d13d c606 543e 9695 a3ba
00000120: 31ea 5ebe 4bfe 58be 9be1 75be 4564 7f3e
00000130: d078 713e 8116 253e 5ec7 68be 9a85 263e
00000140: d632 503e 923b 1cbe e6e0 65be 2a07 6e3e
00000150: 95fd 683e de23 52be b3ad 2dbe 12e2 663e
00000160: bf3f 443e e5f6 17be 5517 523e 8f2f 3ebe
00000170: 3d3b cabd b355 d43d fc2b 163e c52c fcbd
00000180: ebbc 35be e633 6dbe 89d3 793e 08ca aebd
00000190: 9913 0f3e 2018 46be 1d66 28bd 24b6 05be
000001a0: 04bf a63d b476 02be ce2b 10bd 23b0 2cbe
000001b0: 3b4c 65be 5238 093d f578 8f3d edf6 5a3e
000001c0: 2539 12be ba95 77be 3868 7f3e d65b f2bd
000001d0: 46f0 273e 070e 12be f492 4ebe 48fb 06be
000001e0: 03a8 213d 78b2 943d 435f e2bd 7ace 743d
000001f0: 9144 29be 7340 213e 77f5 353e 3e16 19bc
00000200: 74b9 173d c7cc 2d3e 7fe4 37bd d303 41bd
00000210: 13ec 233e c8e4 a83d 7054 72be 8492 e93d
00000220: 4f62 4c3e a9d9 bb3d 0de4 39be 1607 00be
00000230: d949 30be 51bc 1abe eb62 85be 3aa7 14be
00000240: 7f49 30be e4df 32bd c1f0 0c3e 5fb6 7fbe
00000250: 7868 e03d 3a0d 7f3e caff 0e3e abec 61bd
00000260: 9a71 9cbd 327d 50be 2b61 0fbe 3da2 473e
00000270: 6469 063e 9b54 d43d 0977 debd b4c3 7dbe
00000280: 5a14 9fbc 3d34 1dbe bab6 68be 5df7 a1bb
00000290: 7b13 11be 76ea 57be 4256 be3d e89a 0abe
000002a0: de4b 283d 959f 703e 7464 ea3d 7d65 7f3d
000002b0: 4b43 dbbd b836 023e 7a14 eb3d 4c79 ef3d
000002c0: 3eee 6cbe cb66 493e 5bb7 5c3e 2096 a33c
000002d0: fd86 4cbe b5d5 d23d 8dcd 0fbe 9a9d f1bd
000002e0: c5f1 27bc c204 ce3d cf35 0f3d e743 a83d
000002f0: 2d14 103e 54d0 613d c0ab 2f3e 5b36 3abe
00000300: 215c 7a3d dffb 893d 23f0 483d 311f 7a3d
00000310: 75f7 48be 80ec 47bb c2e0 753e 7f2b d93d
00000320: ae8e e2bd 5a78 373e 0386 1cbe 3882 383e
00000330: c2ef 993d 361b 51be b90e b9bc 9e22 a13d
00000340: 3776 a23c 097a d5bd bb9d 3e3d 1b86 493b
00000350: 8edc 14be 4b2a f03d 044b b6bd 710e 943a
00000360: 4795 033d 3d81 143b 1cec 623c 9c8d 423d
00000370: ea11 37be 79da 2ebe aa67 2cbe 2077 5c3e
00000380: 92b2 f0bd caab 20be 2cac 3bbe 7ac4 f53d
00000390: f967 7bbe 53ca 13be 3b77 1ebe a800 14be
000003a0: fdea 323e 5a6c 513e 7eee 6cbe 4708 c0bd
000003b0: 39f7 c83d f42b 3e3e e362 ef3d 2d49 21be
000003c0: 7294 8e3d 330a 633e ae61 aabd ad96 82bd
000003d0: 47d2 36bd bd97 17bd 5eff 5a3e e3f5 9bbc
000003e0: 89db 74be 4c73 2d3d 6da1 efbc 73b2 003e
000003f0: c507 693e 99af 0cbe a515 e4bd 37b3 2abd

blocks.0.attn.c_attn.bias f4 [48]
0.048057538 0.06840605 -0.11261099 -0.09677824 0.14734572 -0.15575817 0.15604298 -0.22210792
-0.13353783 -0.03136619 -0.11102567 -0.22002044 -0.025577947 0.024409704 0.18768209 0.23921567
0.086115524 -0.24579729 0.1870391 -0.19193256 -0.039767988 -0.013920956 0.0046547856 -0.12344538
0.21347088 0.13851634 0.24954443 0.22064152 0.22879331 0.15033078 -0.19833788 0.12166296
-0.024961667 0.21348977 0.0055881804 -0.0259539 0.2233706 -0.1456528 0.066812806 0.006845395
0.14107981 0.20405367 0.07052918 0.16234419 -0.16526617 0.06506755 -0.18919937 -0.01315605
00000000: fbd7 443d 7918 8c3d 97a0 e6bd ab33 c6bd
00000010: cce1 163e 127f 1fbe bbc9 1f3e 4270 63be
00000020: 24be 08be d679 00bd 6d61 e3bd 0a4d 61be
00000030: d888 d1bc dcf6 c73c bc2f 403e f4f4 743e
00000040: 565d b03d 49b2 7bbe 2e87 3f3e f889 44be
00000050: c2e3 22bd b914 64bc 2c87 983b eed0 fcbd
00000060: 1c98 5a3e 3ad7 0d3e 9388 7f3e daef 613e
00000070: cb48 6a3e 50f0 193e 1619 4bbe 6e2a f93d
00000080: 697c ccbc 109d 5a3e 0e1d b73b 469d d4bc
00000090: 43bb 643e 0226 15be 27d5 883d 564f e03b
000000a0: 3a77 103e 72f3 503e 9a71 903d 8e3d 263e
000000b0: 893b 29be 2342 853d 7bbd 41be 798c 57bc

blocks.0.attn.c_proj.weight f4 [16, 16]
-0.009371424 -0.23370199 -0.19808775 -0.22993262 0.055242915 -0.14645551 -0.056535613 0.097310685
-0.14829403 -0.16245285 0.21230134 -0.21430139 0.179546 0.1784361 0.011897563 -0.21331236
-0.25251466 0.114046425 0.16078961 0.03761586 0.0803269 0.013341234 0.030285383 0.21843816
-0.078381546 0.1832963 0.1432089 -0.068294555 0.054906346 -0.06567474 0.0025561135 -0.22171526
-0.18979883 -0.07743525 -0.07610004 0.026703626 -0.18434949 -0.028837234 0.12394666 -0.15693602
0.20347728 -0.09451082 -0.21674995 -0.19586714 -0.2500559 -0.23560822 0.19819073 0.15146944
0.22675581 0.23707156 -0.06453176 0.19830126 0.112421066 0.21152453 0.09303144 -0.16722465
0.14993472 0.0038520782 -0.23938024 0.042572897 0.15240371 0.22234471 0.1730106 -0.078727074
0.01702212 0.006719984 0.14042021 -0.13835838 0.004488259 0.007970418 -0.22214945 0.15180886
-0.17660926 0.05646075 0.03567104 0.07521595 -0.24410938 0.0088026235 0.10391273 -0.010091201
0.16206416 -0.06939404 0.19808945 -0.15357472 0.124305226 -0.11785422 0.15155475 0.011027154
-0.16524148 0.044695254 0.09030835 0.04621508 -0.17969537 -0.15414669 0.003873522 -0.1876583
0.09583752 -0.20748062 0.120117776 -0.18725166 0.14251758 0.111994 0.042271446 0.040650547
0.047613267 0.022168396 -0.19642611 0.24039972 -0.13981524 0.1744976 -0.061955262 0.096431255
0.20503251 0.16717689 -0.14431332 -0.22169562 0.09692073 -0.018701987 -0.04660059 -0.029499574
-0.054023933 0.12536365 -0.18216148 0.20638624 0.0047035944 -0.09098854 -0.105997264 -0.04973486
-0.051574435 0.20445609 0.04379688 -0.1162353 -0.022049831 0.074193895 0.101292394 -0.006682253
-0.029701484 0.13189156 -0.23319642 -0.22063644 0.049520046 0.07940388 -0.052996412 0.20714073
-0.19764233 0.24425277 -0.23664185 -0.08253238 0.16721112 -0.17398602 -0.20242035 -0.021853993
-0.12975508 -0.13459282 0.12274159 -0.101626985 -0.14249174 -0.20108782 0.042115986 -0.10047137
0.019104943 -0.2569067 0.20008266 0.10145513 -0.15788543 0.010515208 -0.096908584 0.05504449
-0.1265161 -0.20254573 -0.1372207 -0.13934873 0.017433766 0.0724937 -0.12988818 0.00785327
-0.07055503 -0.018100817 0.03937548 -0.18182729 -0.05143289 0.20199624 0.12434209 0.13757914
-0.13826098 0.01567134 0.002719035 -0.13148682 0.22414626 0.036553852 -0.13883625 -0.08480379
-0.048050232 0.122292615 -0.12287458 -0.24443862 -0.11992345 0.24967337 -0.14729147 0.0999677
0.053017844 0.119968355 -0.029345192 0.08188735 -0.055270802 -0.15200523 0.13675202 0.11813008
0.04922045 -0.17917058 -0.14533712 -0.15773104 -0.18185316 -0.10855068 -0.14720987 -0.13326421
0.14147358 0.124971166 -0.17234327 0.018673098 -0.08175097 -0.24565494 -0.17491992 -0.014808587
-0.1216408 0.16682959 0.02794244 0.13100725 -0.03241768 0.027346084 0.009263319 0.076488264
0.17786053 0.14602669 0.012378066 0.23125032 -0.13826121 0.22603509 0.11063083 -0.23059152
0.17299315 0.19559333 0.047534246 0.21826507 0.17507789 0.04978582 0.14724492 0.20527354
0.139703 0.10004058 0.06601818 -0.061084837 -0.034920964 0.12905076 -0.18066753 0.11607181
00000000: 9a8a 19bc 934f 6fbe 84d7 4abe 7573 6bbe
00000010: 6546 623d 6ff8 15be e391 67bd d34a c73d
00000020: 64da 17be 0a5a 26be 8665 593e d371 5bbe
00000030: e8da 373e f4b7 363e ffed 423c 8e6e 5abe
00000040: 9a49 81be 2c91 e93d 08a6 243e 1713 1a3d
00000050: 6e82 a43d 3195 5a3c 0d19 f83c 41ae 5f3e
00000060: 8186 a0bd 06b2 3b3e 5ba5 123e 04de 8bbd
00000070: 7ae5 603d 7a80 86bd 7884 273b 5309 63be
00000080: a05a 42be 5f96 9ebd 56da 9bbd 90c1 da3c
00000090: 1dc6 3cbe 103c ecbc bfd7 fd3d d6b3 20be
000000a0: 595c 503e e48e c1bd b3f3 5dbe 6591 48be
000000b0: 5407 80be 4843 71be 83f2 4a3e ce1a 1b3e
000000c0: ad32 683e e3c2 723e 3a29 84bd 7c0f 4b3e
000000d0: 043d e63d e399 583e 4587 be3d f03c 2bbe
000000e0: 7d88 193e 2673 7c3b 1820 75be eb60 2e3d
000000f0: b80f 1c3e 55ae 633e b129 313e a93b a1bd
00000100: f971 8b3c 5033 dc3b 51ca 0f3e d2ad 0dbe
00000110: 3f12 933b 5b96 023c 257b 63be c873 1b3e
00000120: 0fd9 34be 6343 673d cc1b 123d d20a 9a3d
00000130: cff7 79be e138 103c 33d0 d43d 9155 25bc
00000140: 26f4 253e 761e 8ebd f6d7 4a3e b142 1dbe
00000150: bd93 fe3d 8e5d f1bd 2b31 1b3e 3cab 343c
00000160: 1035 29be 5f12 373d 96f3 b83d 064c 3d3d
00000170: 1002 38be a1d8 1dbe eada 7d3b 7f29 40be
00000180: 7646 c43d cd75 54be 4f00 f63d e6be 3fbe
00000190: 21f0 113e 1c5d e53d d324 2d3d 3081 263d
000001a0: 2106 433d 7f9a b53c ed23 49be 582b 763e
000001b0: ba2b 0fbe 80af 323e cdc4 7dbd c07d c53d
000001c0: 0bf4 513e 6b30 2b3e dfc6 13be 2d04 63be
000001d0: 607e c63d e934 99bc 43e0 3ebd 17a9 f1bc
000001e0: 3348 5dbd 545f 003e 8a88 3abe ea56 533e
000001f0: 9c20 9a3b 3358 babd 1815 d9bd c8b6 4bbd
00000200: b73f 53bd f05c 513e 5b64 333d c60c eebd
00000210: d9a1 b4bc f8f2 973d 6372 cf3d cdf6 dabb
00000220: 8750 f3bc 950e 073e 0bcb 6ebe 85ee 61be
00000230: 88d5 4a3d 809e a23d c412 59bd b31c 543e
00000240: c062 4abe 661d 7a3e 3e52 72be bd06 a9bd
00000250: 6439 2b3e 6429 32be 4847 4fbe 2507 b3bc
00000260: 84de 04be b3d2 09be f15f fb3d cf21 d0bd
00000270: 5be9 11be f7e9 4dbe d081 2c3d efc3 cdbd
00000280: f881 9c3c 4689 83be 78e2 4c3e b5c7 cf3d
00000290: b8ac 21be fb47 2c3c 0278 c6bd 5576 613d
000002a0: 708d 01be 2668 4fbe 9583 0cbe 6fb1 0ebe
000002b0: 42d1 8e3c 9477 943d 6801 05be 00ab 003c
000002c0: 287f 90bd 2a48 94bc 2f48 213d ef30 3abe
000002d0: 4bab 52bd 1ad8 4e3e 11a7 fe3d 8ce1 0c3e
000002e0: 4994 0dbe 2f61 803c d631 323b 7ba4 06be
000002f0: 9986 653e 7eb9 153d 172b 0ebe 9cad adbd
00000300: 52d0 44bd 8d74 fa3d aba5 fbbd 1e4e 7abe
00000310: 6d9a f5bd 60aa 7f3e 93d3 16be debb cc3d
00000320: 3d29 593d f8b1 f53d 5465 f0bc 8eb4 a73d
00000330: a363 62bd 42a7 1bbe b908 0c3e 2fee f13d
00000340: 629b 493d 7e78 37be 41d3 14be 3f84 21be
00000350: b737 3abe d24f debd 2fbe 16be 6a76 08be
00000360: 73de 103e e2f0 ff3d c17a 30be 53f8 983c
00000370: 0d6d a7bd f88c 7bbe 351e 33be b79f 72bc
00000380: d01e f9bd 60d5 2a3e 8be7 e43c c426 063e
00000390: 67c8 04bd e504 e03c 2dc5 173c e1a5 9c3d
000003a0: 1221 363e 0588 153e 5fcd 4a3c e2cc 6c3e
000003b0: 5994 0dbe be75 673e 6b92 e23d 2f20 6cbe
000003c0: 1e25 313e 9e49 483e 45b3 423d e180 5f3e
000003d0: 9e47 333e 37ec 4b3d 5fc7 163e 3a33 523e
000003e0: 4e0e 0f3e 13e2 cc3d 8a34 873d 1834 7abd
000003f0: 4909 0fbd e225 043e e900 39be 0fb7 ed3d

blocks.0.attn.c_proj.bias f4 [16]
-0.10389198 -0.24109015 -0.017150825 0.17060432 -0.14238456 0.050905384 0.08129407 -0.01602628
-0.2357958 0.057269316 -0.0035786382 0.08455243 -0.03176838 0.0931305 -0.030910477 -0.012890583
00000000: 52c5 d4bd 56e0 76be e37f 8cbc e6b2 2e3e
00000010: 42cd 11be 2a82 503d 817d a63d 8c49 83bc
00000020: 7474 71be 3b93 6a3d 9687 6abb d329 ad3d
00000030: 901f 02bd 34bb be3d f837 fdbc 0633 53bc

blocks.0.ln2.weight f4 [16]
1.0 1.0 1.0 1.0 1.0 1.0 1.0 1.0
1.0 1.0 1.0 1.0 1.0 1.0 1.0 1.0
00000000: 0000 803f 0000 803f 0000 803f 0000 803f
00000010: 0000 803f 0000 803f 0000 803f 0000 803f
00000020: 0000 803f 0000 803f 0000 803f 0000 803f
00000030: 0000 803f 0000 803f 0000 803f 0000 803f

blocks.0.ln2.bias f4 [16]
0.0 0.0 0.0 0.0 0.0 0.0 0.0 0.0
0.0 0.0 0.0 0.0 0.0 0.0 0.0 0.0
00000000: 0000 0000 0000 0000 0000 0000 0000 0000
00000010: 0000 0000 0000 0000 0000 0000 0000 0000
00000020: 0000 0000 0000 0000 0000 0000 0000 0000
00000030: 0000 0000 0000 0000 0000 0000 0000 0000
